test/resources/test_roberta_model/pytorch_model.bin (torch, 364732 bytes, 89 tensors)

roberta.embeddings.word_embeddings.weight f4 [1000, 32]
0	0xbcdaff4e	-0.026733067
1	0xbccff038	-0.0253831
2	0x3c9d74da	0.019220758
3	0xbd5219d5	-0.051294167
4	0x3c040fdb	0.008060421
5	0x3c182e93	0.009288448
6	0x3c43c622	0.011949094
7	0x3ce292b8	0.027657852
8	0x3cd33572	0.02578232
9	0x3d02be10	0.03191954
10	0xbc01ff19	-0.007934355
11	0xbd00d287	-0.031450775
12	0xbd012951	-0.031533543
13	0xbc2377e9	-0.009977319
14	0x3c1859eb	0.009298782
15	0x3b486a00	0.003058076
16	0x3d1aa546	0.037755273
17	0xba3f954a	-0.00073083176
18	0x3bd0d0a0	0.0063725263
19	0xbcb7bdbe	-0.022429343
20	0x3c329038	0.010898642
21	0x3b2eebb7	0.002669079
22	0xbc819f49	-0.015823023
23	0xbd0b9f96	-0.03408774
24	0xbd064e98	-0.032789797
25	0xbc526cd2	-0.012843328
26	0xbb23f0dd	-0.0025015392
27	0x3c18df29	0.009330549
28	0xbcb000aa	-0.021484692
29	0xbb719e20	-0.0036867931
30	0xbb0948d2	-0.0020947945
31	0xbc252d84	-0.010081653
32	0x00000000	0.0
33	0x00000000	0.0
34	0x00000000	0.0
35	0x00000000	0.0
36	0x00000000	0.0
37	0x00000000	0.0
38	0x00000000	0.0
39	0x00000000	0.0
40	0x00000000	0.0
41	0x00000000	0.0
42	0x00000000	0.0
43	0x00000000	0.0
44	0x00000000	0.0
45	0x00000000	0.0
46	0x00000000	0.0
47	0x00000000	0.0
48	0x00000000	0.0
49	0x00000000	0.0
50	0x00000000	0.0
51	0x00000000	0.0
52	0x00000000	0.0
53	0x00000000	0.0
54	0x00000000	0.0
55	0x00000000	0.0
56	0x00000000	0.0
57	0x00000000	0.0
58	0x00000000	0.0
59	0x00000000	0.0
60	0x00000000	0.0
61	0x00000000	0.0
62	0x00000000	0.0
63	0x00000000	0.0
64	0x3cb40ef2	0.021979783
65	0x3ba55420	0.005045429
66	0xbc539cab	-0.0129157705
67	0x3c71af18	0.014751218
68	0xba7fe14b	-0.00097610493
69	0x3c7e1449	0.015507766
70	0x3c0dbe10	0.008651271
71	0xbb65cc27	-0.0035064311
72	0xbcf74e6b	-0.03018876
73	0x3cb8067d	0.022464031
74	0x3cea0155	0.028565088
75	0xbab8ae60	-0.0014090054
76	0xbcd31db5	-0.025771001
77	0x3c231a70	0.009955034
78	0xbd069e12	-0.03286559
79	0x3cd2a6fc	0.02571439
80	0x3ba36317	0.0049861777
81	0x3c05422f	0.008133455
82	0xbb7d9d72	-0.003869858
83	0x398792e0	0.00025858637
84	0x3cde4e46	0.027136933
85	0x3ac884c7	0.001529836
86	0x3cdad21d	0.026711518
87	0xbcbb19ee	-0.022839513
88	0xbae089d2	-0.0017130917
89	0xbb728499	-0.0037005304
90	0x3cd0b03d	0.025474662
91	0xbcd391d0	-0.025826365
92	0xbc7b77f8	-0.015348427
93	0xbaea9b7c	-0.0017899121
94	0x3c21ec8b	0.009883056
95	0xbc13f5dd	-0.009030786
96	0xbcf2f16b	-0.029656133
97	0x3b3dae30	0.0028942935
98	0xbcea84c1	-0.028627755
99	0xbba19dda	-0.0049321475
100	0xbbdcb669	-0.006735612
101	0xbc83911a	-0.0160604
102	0xbd06d6ef	-0.03291982
103	0x3c577cc4	0.013152305
104	0xbc19aa31	-0.009378956
105	0xbc304f00	-0.010761023
106	0xbcb1b6e4	-0.021693654
107	0xbabaf84b	-0.0014264671
108	0x3cb6b0a0	0.022301018
109	0x3bbec946	0.0058223335
110	0xbca04226	-0.019562792
111	0x3b93beba	0.0045088204
112	0x3c16cef4	0.009204615
113	0x3c7e43b8	0.015519075
114	0x3ca981cb	0.020691773
115	0xbbc61e8a	-0.006046121
116	0x3c31e0aa	0.010856787
117	0xbb0f51ab	-0.0021868746
118	0xbd00c99b	-0.031442266
119	0x3ceb8362	0.028749172
120	0x3bb6be64	0.0055768955
121	0x3c611fcc	0.013740491
122	0x3cb315b4	0.021860935
123	0x3c872c39	0.01650058
124	0x3be740bb	0.007057277
125	0x3cca6f69	0.024711328
126	0x3d126099	0.035736654
127	0xb9bf4c25	-0.0003648709
128	0x3c73eb86	0.014887696
129	0xbc9c56eb	-0.019084414
130	0xbbb81025	-0.005617159
131	0xbb8a7f92	-0.0042266333
132	0x3c63d8e9	0.013906696
133	0xbc34372a	-0.01099948
134	0xbb72ed10	-0.003706757
135	0xbd19ac4e	-0.03751784
136	0xbd423aeb	-0.04741947
137	0xbc1471bc	-0.0090603195
138	0x3b137e87	0.0022505836
139	0xbc2f0917	-0.0106833195
140	0x3c827b04	0.015927799
141	0xbcaf1807	-0.021373762
142	0xbacd1609	-0.0015646826
143	0x3c50de67	0.012748337
144	0xbd49197e	-0.049096577
145	0x3b6e7ccb	0.00363903
146	0xbc8141c7	-0.015778435
147	0xbcec718e	-0.02886274
148	0x3ce69cfd	0.02815103
149	0x3c210a6b	0.009829144
150	0xbbf1ebc9	-0.007382844
151	0xbc898d2b	-0.016790947
152	0x3c7626ef	0.015023931
153	0xbc87fe9b	-0.016600898
154	0x3c2fc214	0.010727424
155	0x3d6bcdd7	0.05756935
156	0x3b5e867e	0.0033954675
157	0x3d26389e	0.040581338
158	0xbc9299aa	-0.017895538
159	0x3c3a0e92	0.011356013
160	0xbc459dfd	-0.012061593
161	0x3c1dc4f3	0.009629476
162	0x3d0fdc13	0.03512199
163	0xbaeebe15	-0.0018214608
164	0xbc8ef817	-0.017452283
165	0x3c0489c0	0.008089483
166	0x3ca7441b	0.020418217
167	0xbd0561f4	-0.03256412
168	0xba5674ca	-0.0008180855
169	0x3d23df1e	0.040007703
170	0xbb9199cd	-0.0044433833
171	0x3cd8b622	0.026454035
172	0x3c041538	0.0080617
173	0x3cf7f839	0.030269729
174	0xbc2ad716	-0.010427257
175	0x3d214fa7	0.039382603
176	0x3c80fe80	0.015746355
177	0xba3e11ee	-0.00072505965
178	0xbc967deb	-0.01837059
179	0x3c3a35f0	0.011365399
180	0xbc5a9369	-0.013340809
181	0x3d12d467	0.035847094
182	0xbc4098d5	-0.011755188
183	0xbcb3875d	-0.021915132
184	0x3c109ab4	0.008825947
185	0xbcc4fd32	-0.024046514
186	0xb8344714	-4.298154e-05
187	0x3c7a6bc9	0.015284487
188	0xbc5f4132	-0.013626384
189	0x3a70504a	0.00091672374
190	0x3c697387	0.014248735
191	0x3b1fb0b0	0.0024366789
192	0xbd403090	-0.046921313
193	0xbbceb04f	-0.0063076387
194	0x3c8d82c1	0.017274262
195	0x3cec86b2	0.028872821
196	0xbc1a5865	-0.009420489
197	0xbcc894dd	-0.024485046
198	0xb933cebb	-0.00017147783
199	0xbc3ef43c	-0.01165491
200	0x3baaa9a0	0.005208209
201	0x3ca3cf6b	0.019996366
202	0xbcce8622	-0.025210444
203	0x3ac444f0	0.0014974158
204	0xbc4e8f38	-0.012607388
205	0xbd2c0d46	-0.042004846
206	0xbd1c1a16	-0.038110815
207	0xbbadc62e	-0.005303166
208	0x3d449758	0.047995895
209	0x3cd5a322	0.026078764
210	0xbc045199	-0.008076095
211	0xbd58a5ab	-0.05289237
212	0x3c2e9c21	0.010657341
213	0x3d13cd20	0.036084294
214	0xbce94035	-0.028473
215	0x3c0ac000	0.008468628
216	0x3bb009dd	0.0053722695
217	0x3c3ad5b7	0.011403493
218	0x3cbd6f4a	0.023124356
219	0x3d217010	0.03941351
220	0xbcc0ba95	-0.02352647
221	0x3c80aa07	0.015706075
222	0x3cbaa6d3	0.022784626
223	0x3c90dc38	0.017683133
224	0xbc92036e	-0.017823901
225	0xbc40808a	-0.011749396
226	0xbaae37c1	-0.0013291762
227	0x3cf9d130	0.030495256
228	0xbcdde878	-0.027088389
229	0x3c9313cd	0.017953778
230	0xbb44f0bb	-0.0030050713
231	0xbcecdd37	-0.028914077
232	0xbc30c697	-0.010789535
233	0x3d33df58	0.04391417
234	0xbcd5036b	-0.026002606
235	0x3c645ff3	0.013938892
236	0x3d052ba3	0.03251232
237	0x3c6a8961	0.01431498
238	0x3ba49a86	0.0050233034
239	0x3b2d6b98	0.0026461836
240	0x3c891e2b	0.016738018
241	0x3c599d61	0.013282151
242	0xb884e884	-6.33756e-05
243	0xbc39eb5b	-0.011347617
244	0xb89a1c64	-7.3485804e-05
245	0x3b50cad9	0.0031859188
246	0xbd3fec0b	-0.046855967
247	0x3cc116e5	0.023570487
248	0x3cbe7c07	0.0232525
249	0xbcbf67e5	-0.02336497
250	0xbc85335f	-0.016259847
251	0x3c1aa350	0.009438351
252	0xbac6eaa4	-0.001517613
253	0x3c2c6f2f	0.010524555
254	0xbbb0bd29	-0.0053936434
255	0xbc5e3026	-0.013561284

roberta.embeddings.position_embeddings.weight f4 [512, 32]
0	0xbb5d421d	-0.003376133
1	0x3b9b017c	0.0047304016
2	0x3b7b8bee	0.0038382965
3	0xbc95f188	-0.018303648
4	0x39ca6950	0.00038606906
5	0xbcd41713	-0.025889909
6	0x3b5a9458	0.003335258
7	0xbd0d33ad	-0.03447311
8	0xbc84c9d2	-0.016209517
9	0x3bff00e1	0.007782087
10	0xbbcd115e	-0.006258174
11	0x3cd7e04f	0.026352076
12	0x3d2a3a96	0.04155978
13	0xbad019c7	-0.0015876823
14	0xbc35f72a	-0.011106292
15	0xbc890512	-0.01672605
16	0xbc0eadb0	-0.0087084025
17	0x3ca3c829	0.019992905
18	0xbd1073fe	-0.03526687
19	0xbc85319e	-0.01625901
20	0x3beb0209	0.0071718735
21	0x3c01357c	0.007886287
22	0x3cb3d2d4	0.021951117
23	0xbc4fc5e1	-0.012681455
24	0x3c81a537	0.01582585
25	0x3b699b06	0.003564538
26	0x3c9eea29	0.019398766
27	0xba4fafb7	-0.0007922607
28	0x3c94a8a5	0.018146822
29	0xbc7c1f7b	-0.015388365
30	0x3c52d46e	0.01286803
31	0x3c81a390	0.015825063
32	0x00000000	0.0
33	0x00000000	0.0
34	0x00000000	0.0
35	0x00000000	0.0
36	0x00000000	0.0
37	0x00000000	0.0
38	0x00000000	0.0
39	0x00000000	0.0
40	0x00000000	0.0
41	0x00000000	0.0
42	0x00000000	0.0
43	0x00000000	0.0
44	0x00000000	0.0
45	0x00000000	0.0
46	0x00000000	0.0
47	0x00000000	0.0
48	0x00000000	0.0
49	0x00000000	0.0
50	0x00000000	0.0
51	0x00000000	0.0
52	0x00000000	0.0
53	0x00000000	0.0
54	0x00000000	0.0
55	0x00000000	0.0
56	0x00000000	0.0
57	0x00000000	0.0
58	0x00000000	0.0
59	0x00000000	0.0
60	0x00000000	0.0
61	0x00000000	0.0
62	0x00000000	0.0
63	0x00000000	0.0
64	0x3c3d3f15	0.011550684
65	0xba7a527e	-0.00095490355
66	0x3a84d3be	0.0010133905
67	0x3ca147ba	0.019687522
68	0x3c83c0f0	0.01608321
69	0x3aa14806	0.001230479
70	0x3d692def	0.05692857
71	0x3d10b956	0.035333
72	0x3c392021	0.011299164
73	0x3c610ed4	0.013736445
74	0xbcfe0821	-0.031009736
75	0x3b5da3d0	0.0033819564
76	0x3cb4a0dc	0.02204936
77	0x3d04f0e4	0.032456294
78	0x3c970cae	0.018438663
79	0x3cdbae1c	0.02681642
80	0xbca3e7a6	-0.02000792
81	0x3a55bec4	0.00081537315
82	0x3c0d3fb6	0.008621147
83	0x3d2181e2	0.039430507
84	0x3d2a2fe1	0.041549567
85	0x3cfa66a6	0.030566525
86	0xbcb2175e	-0.021739658
87	0xbb80c248	-0.00392941
88	0xbb90db40	-0.004420668
89	0x3cc130ee	0.023582902
90	0xbaa10124	-0.0012283665
91	0xbc268ebd	-0.010165867
92	0x3cdb1b6b	0.026746472
93	0xbc9da464	-0.019243427
94	0x3cb144ae	0.021639194
95	0xba95ca8d	-0.0011428163
96	0x3b5b687d	0.0033479028
97	0x3bffe403	0.0078091635
98	0x3b3ff117	0.0029287988
99	0x3cb52752	0.022113476
100	0xbc12de16	-0.008964082
101	0x3c47d2fd	0.0121963
102	0xbd0d5e0d	-0.034513522
103	0x3c6f8a0e	0.014620317
104	0x3d252398	0.040317148
105	0xbc1af059	-0.009456717
106	0xbc55573e	-0.013021288
107	0x3d09ad58	0.03361258
108	0x3cbe9438	0.023264036
109	0xbccb3342	-0.024804715
110	0xbcf84fc9	-0.030311482
111	0x3a3f0c2e	0.00072878867
112	0x3b3c0633	0.0028690218
113	0x3cb508e5	0.022098968
114	0x3ba83038	0.0051327012
115	0xbc9ff3e9	-0.019525485
116	0xbb40540f	-0.0029346978
117	0xbd01d8f2	-0.031701036
118	0x3c8489b9	0.016178953
119	0x3bad43cf	0.0052876244
120	0xbbf72b5c	-0.0075430106
121	0xbc827419	-0.0159245
122	0xbc813890	-0.015774041
123	0x3cee6dc6	0.029105078
124	0xbd0b297f	-0.03397512
125	0xbc7b3202	-0.015331747
126	0x3af7242a	0.0018855382
127	0x3bb7724d	0.0055983425
128	0xbc360fa1	-0.011112125
129	0x3be0eee6	0.0068644164
130	0xbae6a21b	-0.0017595919
131	0x3ce31285	0.027718792
132	0x3b8b92e0	0.004259452
133	0x3c5a69e5	0.013330911
134	0x3d38697b	0.04502247
135	0xbab6fde2	-0.0013961161
136	0xbd206f64	-0.03916873
137	0x3b102e79	0.0022000356
138	0x3ca01d76	0.019545298
139	0x3bc29947	0.0059386822
140	0xbc26d749	-0.010183164
141	0x3a9669ca	0.0011475619
142	0x3cc0f2b7	0.023553235
143	0x3c16e6de	0.009210316
144	0x3c446504	0.011986975
145	0x3c6e1d03	0.014533284
146	0xbc4f5144	-0.012653653
147	0xb8d18854	-9.99129e-05
148	0x3cb324e2	0.021868173
149	0x3cd7f220	0.026360571
150	0x3ca7f6bc	0.020503394
151	0xbcfe38d0	-0.03103295
152	0x3d126275	0.035738427
153	0xbc7ff9f4	-0.015623558
154	0xbc3ffa5d	-0.011717406
155	0xbc8bbb87	-0.017057193
156	0x3c1805de	0.009278743
157	0x3cd1ae90	0.025595933
158	0x3cb565f4	0.022143342
159	0xbcd22385	-0.025651703
160	0x3d15593b	0.03646205
161	0x3d0ac1e6	0.033876322
162	0xbc241dfd	-0.010016915
163	0x3c294cab	0.0103332205
164	0xbc5197c0	-0.012792528
165	0xbc96bd07	-0.018400682
166	0xbbf90a23	-0.0076000853
167	0xbcf6a352	-0.030107174
168	0xbd24a982	-0.040200718
169	0x3d2b1eae	0.041777305
170	0xbca28f09	-0.019843595
171	0x3d0af464	0.033924475
172	0xbbf48470	-0.007462077
173	0xbc13d44f	-0.009022786
174	0xbcdb56e1	-0.026774826
175	0xbd2ecbd8	-0.04267487
176	0x3cf2a046	0.02961744
177	0x3a6ef4db	0.0009115466
178	0xbc012908	-0.007883318
179	0xbc9bb306	-0.019006263
180	0x3c30035e	0.01074299
181	0x3b7df6db	0.0038751874
182	0x3ce3297e	0.027729746
183	0xb9c8e665	-0.0003831863
184	0xbc295147	-0.010334319
185	0x3ba8a420	0.0051465183
186	0x3c45dfcd	0.012077284
187	0x3c8973b0	0.016778797
188	0xbd0f311a	-0.034958936
189	0x3c62fa86	0.013853675
190	0x3c70a181	0.014686943
191	0xbc8d8e07	-0.017279638
192	0xbccf5b5d	-0.02531212
193	0xbc7967a7	-0.015222467
194	0xbc8ba92b	-0.017048439
195	0xbd253b59	-0.0403398
196	0x3c89ec5f	0.016836343
197	0xbbcb20b0	-0.006198965
198	0x3d0c38e2	0.034233935
199	0xbd0a63e1	-0.03378666
200	0x3c2dd887	0.010610706
201	0xbce370c4	-0.027763732
202	0xbc09e42b	-0.008416216
203	0x3bb8ba61	0.0056374525
204	0xbc02a737	-0.007974437
205	0xbbb570fb	-0.00553715
206	0x3c79bf27	0.015243328
207	0x3b27dd7c	0.0025614193
208	0xbc14e8ea	-0.009088734
209	0xbc4892f3	-0.012242067
210	0xbc478c94	-0.0121795125
211	0x3d1a4d62	0.037671454
212	0xbc2f300b	-0.010692607
213	0xbb8bf815	-0.004271517
214	0x3b96b8f7	0.0045996862
215	0x3c64237e	0.013924478
216	0xba83baea	-0.0010050212
217	0xbca79370	-0.020456046
218	0xbcd4f161	-0.025994005
219	0xba698ec7	-0.000890952
220	0x3bb24f01	0.005441547
221	0x3adce775	0.0016853648
222	0xbc72b875	-0.014814486
223	0x3bde6153	0.0067865043
224	0x3cbf7a10	0.023373634
225	0x3d25e992	0.040505953
226	0x3c66d7c1	0.014089526
227	0x3c8767ed	0.016529048
228	0x3c28aa85	0.010294561
229	0xbc230332	-0.009949492
230	0xbcfec89d	-0.03110152
231	0x3b8e088b	0.0043345145
232	0x3c3c5b58	0.011496387
233	0xbbd9dff7	-0.006649013
234	0xbc13409c	-0.008987572
235	0xbb0dda1c	-0.0021644896
236	0xbcd56b98	-0.026052281
237	0xbc83c420	-0.01608473
238	0xbb61e704	-0.0034469971
239	0xbcc5e1fb	-0.024155607
240	0xbc994568	-0.018709853
241	0xbd36fa34	-0.044672206
242	0x3c0921bd	0.00836986
243	0x3cbe1660	0.023204029
244	0xbbab1a0a	-0.00522161
245	0x3c571ebc	0.013129886
246	0x3c172d28	0.009227075
247	0x3bcc3eb3	0.0062330603
248	0x3d0cc923	0.034371506
249	0xbb043f4a	-0.0020179325
250	0x3b123fbb	0.0022315818
251	0x3b75e270	0.0037519
252	0x3cb5588a	0.022136945
253	0xbb74b6c5	-0.0037340384
254	0xbb525734	-0.0032095434
255	0xbc00ef9c	-0.007869627

roberta.embeddings.token_type_embeddings.weight f4 [16, 32]
0	0xbc39f1e4	-0.011349175
1	0xbba7d522	-0.005121843
2	0x3d3d99e0	0.046289325
3	0xbc6ac706	-0.014329677
4	0x3cb1fcf8	0.02172707
5	0x3be40992	0.0069591487
6	0xbc6f2870	-0.014597043
7	0x3a2f549c	0.0006688328
8	0xbcc73fd4	-0.024322428
9	0x3d4af785	0.04955246
10	0x3ca82477	0.0205252
11	0x3bbdf7d4	0.0057973657
12	0xbc52446e	-0.012833698
13	0x3a1b8101	0.0005932004
14	0xba55b777	-0.00081526436
15	0xbd233849	-0.0398486
16	0xbc662050	-0.01404579
17	0x3c5d747c	0.013516542
18	0xbc64ea95	-0.013971944
19	0x3d0ff3a5	0.035144467
20	0xbd3777e7	-0.044792082
21	0x3c7b1379	0.015324467
22	0x3cb6cdb4	0.022314884
23	0xbc5a5427	-0.013325728
24	0x3c41529c	0.011799481
25	0x3c4b4735	0.012407114
26	0x3cbd57fd	0.023113245
27	0x3c533d27	0.012892998
28	0x3d454a09	0.04816631
29	0xbb9d02b7	-0.0047915834
30	0x3cca5247	0.024697436
31	0x3d6884db	0.056767326
32	0x3c471486	0.012150889
33	0xbd0b6b11	-0.034037653
34	0x3ac8598f	0.001528548
35	0xbadf8204	-0.0017052297
36	0xbbd4f5e1	-0.0064990376
37	0x3cf8a22e	0.03035077
38	0x3c07626b	0.008263211
39	0x3ae7e5f0	0.0017692428
40	0xbc3005d7	-0.01074358
41	0x3cecc8f3	0.028904414
42	0x3d48bc46	0.049007677
43	0xbc4fafd3	-0.012676197
44	0x3b37cc8a	0.0028045499
45	0x3c3615d0	0.011113599
46	0x3cb90055	0.022583166
47	0x3b39b77b	0.0028338123
48	0x3c8e63e4	0.017381616
49	0xbcfa9435	-0.030588249
50	0x3c0e1564	0.008672092
51	0xbcf4d19d	-0.029885108
52	0xbc49e213	-0.012321967
53	0x3ccf591e	0.02531105
54	0xbce4538e	-0.027871873
55	0xbac2beaa	-0.0014857848
56	0x3b868a42	0.004105837
57	0xbce689c4	-0.028141864
58	0x3a8705ef	0.0010301451
59	0xbc1ddbd2	-0.009634929
60	0xbb792c37	-0.003802074
61	0x3c33bab5	0.010969807
62	0xbc8593af	-0.016305773
63	0x3b73861d	0.0037158795
64	0xbbacab98	-0.005269479
65	0xbcc01e21	-0.023451867
66	0x3d1bb12d	0.038010765
67	0x3a9cf837	0.0011975829
68	0xbc79000e	-0.015197767
69	0xbb6c5dd8	-0.0036066677
70	0x3cc4ee45	0.024039397
71	0x3b305bf8	0.0026910286
72	0x3cedaaea	0.029012162
73	0x3c087d67	0.0083306795
74	0xbb114c23	-0.0022170625
75	0xbc038b83	-0.008028868
76	0x3cb1397e	0.02163386
77	0xbd517f75	-0.051146943
78	0xbbc1aad9	-0.005910259
79	0xbc9b90a0	-0.018989861
80	0xbc4ff5af	-0.012692853
81	0x3cb75c35	0.022382835
82	0xbc364ecf	-0.011127188
83	0x3ce9ccbd	0.02854001
84	0x3d1fbe8d	0.039000083
85	0xbc62f010	-0.013851181
86	0xbd665ae9	-0.056239042
87	0xba8a1429	-0.0010534573
88	0xbb814f14	-0.0039461944
89	0x3b9cfba6	0.004790741
90	0x3c8eb1cd	0.017418766
91	0xbc1e836e	-0.00967489
92	0xbc915ddb	-0.01774495
93	0xbc371ac4	-0.011175815
94	0x3c012351	0.007881955
95	0xbc30dbb4	-0.010794569
96	0x3c9c3c4d	0.019071722
97	0xbb9d8ac2	-0.004807801
98	0xbcf30c79	-0.029669033
99	0x3c0df5e7	0.008664585
100	0x3c83823b	0.01605331
101	0xbc98cbc6	-0.018651854
102	0x3cd97d30	0.026548952
103	0xbcd6e04f	-0.026230006
104	0xbca10863	-0.01965732
105	0x3bc38f70	0.005968027
106	0xbc8bff9a	-0.017089654
107	0x3c136a3d	0.008997497
108	0x3cc72360	0.02430886
109	0x3bdd855b	0.006760282
110	0x3cb5d530	0.022196382
111	0xbb7f98e0	-0.0039001033
112	0xbd12a21d	-0.035799135
113	0x3c647e47	0.0139461225
114	0xbbc085b0	-0.005875312
115	0xbcc77e75	-0.024352292
116	0x3caf4209	0.021393793
117	0x3cde75ec	0.027155839
118	0xbb98172c	-0.004641434
119	0x3b764610	0.0037578382
120	0x3c47edc7	0.012202687
121	0x3b368f46	0.0027856394
122	0x3c7de783	0.015497091
123	0x3b1292e9	0.0022365397
124	0x3c785921	0.015157969
125	0xbc5af9f2	-0.013365256
126	0x3bd12cef	0.0063835303
127	0xbc4bf972	-0.012449609
128	0xbc1f98e0	-0.009741038
129	0x3d2d513e	0.042313807
130	0xbd2494d2	-0.04018099
131	0x3c2e7421	0.0106478045
132	0x3d0209e7	0.031747725
133	0xb9223dc7	-0.00015472538
134	0xbd0829bf	-0.033242937
135	0xbc5edd80	-0.013602614
136	0x3b18a14e	0.0023289504
137	0xbc079678	-0.008275621
138	0xbd1e3ea2	-0.03863395
139	0xbc67c359	-0.014145696
140	0xbc6359ac	-0.01387636
141	0x3c6aa190	0.014320746
142	0x3c48173c	0.012212571
143	0xbb606a62	-0.0034243097
144	0xbadf962a	-0.0017058302
145	0xbc4da193	-0.012550729
146	0xbd574919	-0.052559946
147	0xba1c119c	-0.0005953552
148	0xbc22ef2d	-0.009944719
149	0xbbb3ce94	-0.0054872725
150	0x3b617595	0.003440236
151	0xbb2ac8a7	-0.002605954
152	0xbcc56066	-0.024093818
153	0x3aac2867	0.00131346
154	0x3ac50dea	0.0015034054
155	0xbbc15e33	-0.005901122
156	0xbc36c3b2	-0.011155056
157	0xbc069320	-0.008213788
158	0x3aac958f	0.001316713
159	0xb8f67c1b	-0.000117533105
160	0x3bc7a05c	0.0060921144
161	0xbbeb6eae	-0.007184825
162	0xbd05da29	-0.032678757
163	0x3d5d1a06	0.053979896
164	0x3c8b2e04	0.016989715
165	0xbcda373b	-0.026637664
166	0xbcb67047	-0.022270335
167	0x3c41ef3c	0.011836823
168	0x3ccfc421	0.025362076
169	0x3ad51b94	0.0016258829
170	0xbcb286ca	-0.021792788
171	0xbadbf40c	-0.0016781106
172	0x3c4ceab5	0.01250713
173	0x3c5318a5	0.012884294
174	0x3cdfa318	0.027299449
175	0x3c766d6e	0.0150407385
176	0x3bf03786	0.0073308377
177	0x3c9138f4	0.017727353
178	0xbd043b16	-0.03228291
179	0xbd150279	-0.03637931
180	0xbcd88247	-0.026429309
181	0x3d2909d6	0.041269146
182	0x3c835076	0.016029578
183	0x3aa399f3	0.0012481794
184	0xbbde4720	-0.006783381
185	0xbc32bbbb	-0.010909016
186	0x3c19ee87	0.009395248
187	0xbc5a4374	-0.013321746
188	0xbc5f850f	-0.0136425635
189	0x3b4e94e9	0.0031521863
190	0x3d198d43	0.037488233
191	0xba526107	-0.00080253225
192	0xbbd13797	-0.0063848007
193	0xbce4fb06	-0.027951729
194	0xbcadd82f	-0.021221248
195	0xbbc4660a	-0.0059936093
196	0x3cdd6baf	0.027028887
197	0x3b92f167	0.004484344
198	0x3cf378d9	0.02972071
199	0xb9e4c034	-0.0004363075
200	0x3c4fbc65	0.012679194
201	0x3c83d165	0.016091058
202	0x3cd8f3ce	0.026483443
203	0x3cd21560	0.025644958
204	0x3c01b277	0.0079160845
205	0xbc54356f	-0.012952193
206	0xbd1e0661	-0.038580302
207	0x3c909096	0.017647069
208	0xbc7f9ebc	-0.01560181
209	0xbbe2c937	-0.0069209593
210	0x3c349fd0	0.01102443
211	0xbc8db006	-0.017295849
212	0x39e4a002	0.00043606764
213	0xbc7999db	-0.015234436
214	0xba7b71f5	-0.0009591871
215	0xbcbfe0be	-0.023422595
216	0xbc839c94	-0.016065873
217	0x3cfe7017	0.031059308
218	0xbc8f3494	-0.017481126
219	0xbd0b033d	-0.033938635
220	0xbbbd73aa	-0.0057816105
221	0x3c838651	0.016055258
222	0x39dd250f	0.00042180016
223	0xbcd1407b	-0.025543442
224	0xbbec9ed0	-0.0072210804
225	0xbaf5c9fb	-0.0018752211
226	0x3c957438	0.018243894
227	0x3b745c4b	0.0037286456
228	0x3c5a5c02	0.0133276
229	0x3bef99e5	0.007312047
230	0x3b94b48d	0.004538125
231	0x3bb0df3e	0.0053977063
232	0x399567cf	0.00028496838
233	0x3b93c710	0.004509814
234	0xbc90f172	-0.017693255
235	0xba9b3e14	-0.0011844062
236	0xbc0ba4b6	-0.008523157
237	0xbd2721c2	-0.04080368
238	0xbc698c81	-0.01425469
239	0x3cfb670f	0.03068879
240	0xbc767590	-0.0150426775
241	0xbc0d0757	-0.008607707
242	0x3cc86ae9	0.024465041
243	0xbc30d4e0	-0.010792941
244	0x3b4a5565	0.0030873653
245	0x3c766342	0.015038313
246	0xbb4d4000	-0.0031318665
247	0x3b758e7c	0.003746896
248	0xbab54e1e	-0.0013832485
249	0x3d34206a	0.043976225
250	0xbc86c31c	-0.016450457
251	0xba87b970	-0.0010354947
252	0xbcc04662	-0.023471061
253	0x3bdccfe5	0.00673865
254	0x3b8e5032	0.004343056
255	0x3d0ed519	0.034871195

roberta.embeddings.LayerNorm.weight f4 [32]
0	0x3f800000	1.0
1	0x3f800000	1.0
2	0x3f800000	1.0
3	0x3f800000	1.0
4	0x3f800000	1.0
5	0x3f800000	1.0
6	0x3f800000	1.0
7	0x3f800000	1.0
8	0x3f800000	1.0
9	0x3f800000	1.0
10	0x3f800000	1.0
11	0x3f800000	1.0
12	0x3f800000	1.0
13	0x3f800000	1.0
14	0x3f800000	1.0
15	0x3f800000	1.0
16	0x3f800000	1.0
17	0x3f800000	1.0
18	0x3f800000	1.0
19	0x3f800000	1.0
20	0x3f800000	1.0
21	0x3f800000	1.0
22	0x3f800000	1.0
23	0x3f800000	1.0
24	0x3f800000	1.0
25	0x3f800000	1.0
26	0x3f800000	1.0
27	0x3f800000	1.0
28	0x3f800000	1.0
29	0x3f800000	1.0
30	0x3f800000	1.0
31	0x3f800000	1.0

roberta.embeddings.LayerNorm.bias f4 [32]
0	0x00000000	0.0
1	0x00000000	0.0
2	0x00000000	0.0
3	0x00000000	0.0
4	0x00000000	0.0
5	0x00000000	0.0
6	0x00000000	0.0
7	0x00000000	0.0
8	0x00000000	0.0
9	0x00000000	0.0
10	0x00000000	0.0
11	0x00000000	0.0
12	0x00000000	0.0
13	0x00000000	0.0
14	0x00000000	0.0
15	0x00000000	0.0
16	0x00000000	0.0
17	0x00000000	0.0
18	0x00000000	0.0
19	0x00000000	0.0
20	0x00000000	0.0
21	0x00000000	0.0
22	0x00000000	0.0
23	0x00000000	0.0
24	0x00000000	0.0
25	0x00000000	0.0
26	0x00000000	0.0
27	0x00000000	0.0
28	0x00000000	0.0
29	0x00000000	0.0
30	0x00000000	0.0
31	0x00000000	0.0

roberta.encoder.layer.0.attention.self.query.weight f4 [32, 32]
0	0xbd18e21e	-0.037325017
1	0xbb8f9392	-0.0043816054
2	0x3cc22593	0.023699557
3	0xbc8ebdc0	-0.017424464
4	0x3c911556	0.01771037
5	0xbc430b50	-0.011904553
6	0x3ca85492	0.020548139
7	0x3bf2a2f8	0.0074046813
8	0xbc8bd8f9	-0.017071234
9	0x3a28af9b	0.00064348587
10	0xbbb97e2f	-0.005660794
11	0x3d2c353b	0.042042952
12	0xbc03d24d	-0.008045745
13	0x3cff8402	0.031190876
14	0xbb56b1a9	-0.0032759702
15	0xbbb24673	-0.005440527
16	0x3c85812f	0.016296951
17	0xbc962166	-0.018326472
18	0x3d025650	0.031820595
19	0xbc4744a6	-0.012162363
20	0x3ca563ca	0.020189185
21	0xbc2a1e85	-0.010383253
22	0x3ba03d6c	0.0048901346
23	0x3d1bba7f	0.038019653
24	0x3cf78a38	0.030217275
25	0xbbe1fe6b	-0.006896784
26	0x3d0a194d	0.033715535
27	0xbc90b647	-0.017665042
28	0xbca3bd19	-0.01998763
29	0x3ba45a14	0.005015621
30	0xbd4fb589	-0.050710235
31	0xbcc0f7a2	-0.02355558
32	0x3c744455	0.01490887
33	0x3a195801	0.00058496004
34	0xbd6af2b0	-0.05736035
35	0x3a960190	0.0011444557
36	0xbc33bbc9	-0.010970064
37	0x3cb99cc9	0.022657769
38	0x3d605bb5	0.05477496
39	0xbb92bb29	-0.0044778776
40	0xbb0dce85	-0.0021637988
41	0x3ce6be94	0.028167047
42	0xbd106e48	-0.035261422
43	0xbb98e8e2	-0.0046664337
44	0xbc6311fd	-0.013859269
45	0x3c0a0119	0.008423113
46	0x3cf83a2a	0.030301172
47	0x3cb57a06	0.022152912
48	0x3b9c4e20	0.0047700554
49	0x3c60f8b2	0.013731169
50	0xbc42b7f8	-0.011884682
51	0x3cd71489	0.02625491
52	0x3bd3a9fe	0.0064594736
53	0x3c12687f	0.008936047
54	0xbbe1cb54	-0.0068906937
55	0xbc448102	-0.0119936485
56	0xbd3c062b	-0.04590432
57	0xbc5eb177	-0.013592116
58	0x3b4efa38	0.0031582247
59	0xbbbb2b72	-0.005711966
60	0xbaf62c42	-0.00187815
61	0xbc7f9b93	-0.015601057
62	0x3bc1ad44	0.0059105475
63	0xbd0cb184	-0.03434898
64	0xbca7a372	-0.020463679
65	0xbd04b7f2	-0.032401986
66	0xbcb8ff86	-0.02258278
67	0xb7945c14	-1.7685852e-05
68	0x3c17ea89	0.009272226
69	0x3c91725f	0.017754732
70	0x3c20e9f4	0.009821404
71	0x3bf9e4c7	0.0076261493
72	0xbcb8c8b4	-0.02255664
73	0xbcb075a2	-0.021540467
74	0xbc6a8ad5	-0.014315327
75	0xbc1a5a25	-0.009420906
76	0xbd131bd2	-0.035915203
77	0xbcb6577c	-0.022258513
78	0xbccc2875	-0.024921635
79	0x3c253c6b	0.010085206
80	0x3b14f3c4	0.0022728303
81	0x3c134131	0.008987711
82	0xbc92e52d	-0.017931545
83	0x3d48cfdb	0.04902635
84	0x3cd65a33	0.026166057
85	0x3bf72149	0.0075418097
86	0x3c7fef1d	0.015620974
87	0x3cd08ea0	0.025458634
88	0x3ce6cc09	0.028173463
89	0x3ae7f27d	0.0017696169
90	0xba6d3270	-0.00090483483
91	0xbb9cf75e	-0.0047902307
92	0x3d0a131d	0.033709634
93	0xbd00a61a	-0.031408407
94	0xbcbe2d7c	-0.023215048
95	0xbc1063dd	-0.008812872
96	0xbca681b0	-0.020325512
97	0x3ca41af2	0.02003238
98	0x3c63ea4f	0.013910844
99	0xbb512da2	-0.0031918068
100	0x3adfc4ca	0.0017072198
101	0xbb4fe3a2	-0.0031721373
102	0x3cba0be7	0.022710754
103	0x3d21b812	0.039482184
104	0x3b1c8e66	0.0023888587
105	0xbc2664b9	-0.01015585
106	0x3cda9075	0.02668021
107	0xbbe899a5	-0.007098394
108	0xbd3be1a7	-0.045869496
109	0xbc965715	-0.01835207
110	0x3b0c67b2	0.0021424112
111	0xbcf67d58	-0.030089065
112	0x3cc076a5	0.023494074
113	0x3bb9ee20	0.0056741387
114	0x3c845d2a	0.016157705
115	0xbcc8975b	-0.024486234
116	0xbcdb2320	-0.026750147
117	0x3cdfdca0	0.027326882
118	0xbba5ef38	-0.0050639175
119	0xbce73c6c	-0.028227054
120	0xbc9c8294	-0.019105233
121	0x3c2bfb64	0.010496948
122	0x3c8f4286	0.017487776
123	0x3d084437	0.03326818
124	0xbc62ce38	-0.013843112
125	0xbc64d6e4	-0.01396725
126	0xbc3519bc	-0.011053499
127	0xbadcee89	-0.0016855757
128	0xba129176	-0.00055911334
129	0x3af4f243	0.0018687922
130	0x3cdb01b4	0.02673421
131	0xbcfb22d5	-0.030656258
132	0x3ca87e58	0.020568058
133	0xbbe199fc	-0.0068848114
134	0x3d08fd43	0.033444654
135	0xbd08777f	-0.033317085
136	0x3c8ad413	0.016946828
137	0xbc9ea424	-0.019365378
138	0xbb846111	-0.0040398915
139	0xbbdb4687	-0.006691757
140	0xbcbfd66b	-0.023417672
141	0xbc690c20	-0.014224082
142	0xbc0e4a57	-0.008684716
143	0xbc7146f2	-0.014726387
144	0x3c560306	0.013062244
145	0x3c56ef34	0.013118554
146	0xbc90ddeb	-0.017683944
147	0xbc8322b1	-0.016007753
148	0x3c01793c	0.00790244
149	0x3cd8e9ee	0.026478734
150	0xbbbf2618	-0.0058333986
151	0x3bce870c	0.00630272
152	0xbcb6163d	-0.0222274
153	0xbc828710	-0.015933543
154	0xbbc38984	-0.005967321
155	0x3c03047a	0.007996673
156	0xbb666e2f	-0.003516089
157	0xbcad80a9	-0.021179514
158	0xbab31318	-0.0013662307
159	0x3cbd58eb	0.023113688
160	0xbb39e320	-0.0028364137
161	0x3cb34fc1	0.021888616
162	0x3d1145cd	0.035466958
163	0x3be4af73	0.006978923
164	0xbcab7457	-0.020929499
165	0x3c24ef2e	0.0100667905
166	0x3ca672eb	0.020318469
167	0x3ccc8f94	0.024970807
168	0xbc33df00	-0.01097846
169	0x3d5e2559	0.054234836
170	0x3b773be1	0.00377249
171	0xbcc6ea30	-0.024281591
172	0xbd2f0fce	-0.042739682
173	0xbcc6c5d4	-0.024264254
174	0x3cb6d662	0.022319023
175	0x3c228d42	0.009921374
176	0xbc162bcb	-0.0091657145
177	0x3ce5f6b4	0.028071739
178	0x3c461190	0.012089148
179	0xbcbf542a	-0.023355562
180	0xbc4398fb	-0.011938329
181	0x3ceb8bce	0.028753188
182	0xbbea3f55	-0.007148663
183	0xbcad1094	-0.02112607
184	0x3c09bdf3	0.008407104
185	0xbc14d2c6	-0.009083455
186	0x3c1b666c	0.0094848685
187	0x3d0a0141	0.033692602
188	0xbd48b62d	-0.04900186
189	0xbad3109e	-0.0016102975
190	0x3d03881d	0.03211223
191	0xbd0ee46a	-0.0348858
192	0xb9e7f6f5	-0.0004424375
193	0xbcb88782	-0.022525553
194	0xbd027697	-0.031851377
195	0xbc99eca4	-0.018789597
196	0x3d014385	0.031558532
197	0xbbe30a4c	-0.0069287177
198	0x3ca2dc6c	0.019880496
199	0x3caa3e98	0.0207818
200	0x3cc5f149	0.024162905
201	0x3bdcce58	0.0067384653
202	0x3cdf72f0	0.027276486
203	0xbc104cac	-0.0088073425
204	0xbc72f443	-0.014828744
205	0xbb8ffd2a	-0.004394193
206	0x3c591eb9	0.013251954
207	0x3b93dabf	0.0045121606
208	0x3b60182a	0.003419409
209	0xbbff33be	-0.0077881506
210	0x3c571342	0.01312715
211	0xbd1236d0	-0.035696805
212	0xbbee2535	-0.007267619
213	0xbcae1de0	-0.02125448
214	0xbc5e75cb	-0.013577889
215	0xbbc4b065	-0.006002473
216	0xbc1134e4	-0.008862708
217	0xbccda19b	-0.025101474
218	0x3d087756	0.033316933
219	0x3c9e15ab	0.019297441
220	0xbc82fd05	-0.01598979
221	0x3bd20261	0.006408975
222	0xbc60c3d4	-0.013718564
223	0xbcc84213	-0.02444557
224	0x3ad5f5f2	0.0016323908
225	0x3b8ce040	0.0042991936
226	0xbc0b9027	-0.008518255
227	0x3bd343b3	0.0064472794
228	0x3c50d006	0.012744909
229	0x3cc416e9	0.023936706
230	0x3c577297	0.013149879
231	0x3c545a50	0.012960985
232	0x3c9dc490	0.019258767
233	0x3c512a14	0.01276638
234	0xbd7bbd01	-0.061459545
235	0xbc806030	-0.015670866
236	0x3c28a3b8	0.01029294
237	0xbba708cf	-0.0050974856
238	0xbbd51015	-0.0065021613
239	0x3d0bf303	0.0341673
240	0x3ad9d8de	0.0016620418
241	0xbbbdf404	-0.005796911
242	0xbcbb6335	-0.022874454
243	0xbb0ed1de	-0.002179257
244	0xbccefb64	-0.025266357
245	0x3c5e094b	0.01355202
246	0xbc736640	-0.014855921
247	0xbc687b14	-0.0141895
248	0xbaa5a4ad	-0.0012637578
249	0xbcd43af0	-0.02590701
250	0xbc18a52c	-0.009316724
251	0xbd539365	-0.05165424
252	0xbca55f50	-0.02018705
253	0x3d07f618	0.033193678
254	0xbb7c4070	-0.0038490556
255	0xbba38f3b	-0.0049914396

roberta.encoder.layer.0.attention.self.query.bias f4 [32]
0	0x00000000	0.0
1	0x00000000	0.0
2	0x00000000	0.0
3	0x00000000	0.0
4	0x00000000	0.0
5	0x00000000	0.0
6	0x00000000	0.0
7	0x00000000	0.0
8	0x00000000	0.0
9	0x00000000	0.0
10	0x00000000	0.0
11	0x00000000	0.0
12	0x00000000	0.0
13	0x00000000	0.0
14	0x00000000	0.0
15	0x00000000	0.0
16	0x00000000	0.0
17	0x00000000	0.0
18	0x00000000	0.0
19	0x00000000	0.0
20	0x00000000	0.0
21	0x00000000	0.0
22	0x00000000	0.0
23	0x00000000	0.0
24	0x00000000	0.0
25	0x00000000	0.0
26	0x00000000	0.0
27	0x00000000	0.0
28	0x00000000	0.0
29	0x00000000	0.0
30	0x00000000	0.0
31	0x00000000	0.0

roberta.encoder.layer.0.attention.self.key.weight f4 [32, 32]
0	0x3c0af137	0.008480362
1	0x3ba6c05e	0.00508885
2	0x3b9c37f0	0.0047674105
3	0x3c48e1a6	0.01226083
4	0xbb1a7a38	-0.0023571383
5	0xbb252133	-0.002519679
6	0x3c4d3c6c	0.012526613
7	0xbc56e95d	-0.013117162
8	0xbbce59ca	-0.006297325
9	0xbd465f1d	-0.04843055
10	0xbc796870	-0.015222654
11	0xbbc87426	-0.0061173616
12	0x3c8583e0	0.016298234
13	0x3c31e541	0.010857881
14	0xbba6eec0	-0.005094379
15	0x3b0fe028	0.0021953676
16	0x3cd4aeeb	0.025962314
17	0x3bb42bf8	0.0054984055
18	0xbd5353c9	-0.051593576
19	0xbd07e53d	-0.033177603
20	0x3c93aa5b	0.018025568
21	0xbae341ec	-0.0017338372
22	0x3c765a41	0.015036167
23	0x39b7b724	0.0003504093
24	0xbc818498	-0.015810296
25	0x3d09a8ad	0.033608127
26	0xbc070302	-0.008240463
27	0x3d06381f	0.032768365
28	0x3ccac880	0.024753809
29	0x3c547858	0.012968145
30	0xbd2c58f7	-0.04207703
31	0x3c8ff731	0.017573925
32	0x3c2eedbb	0.010676797
33	0xbc6dba59	-0.014509761
34	0x3bd75e78	0.006572541
35	0xbc8e3a81	-0.017361881
36	0x3bbe8ba4	0.0058149863
37	0x3b6d9519	0.00362522
38	0x3cb3a4cf	0.021929173
39	0xbc51af01	-0.012798072
40	0x3c344526	0.011002814
41	0xbc941452	-0.018076096
42	0xbb4c673b	-0.003118946
43	0xbcee623e	-0.02909958
44	0xbc1a5c3b	-0.0094214035
45	0xbcbdcd62	-0.023169223
46	0x3bad7f86	0.005294743
47	0x3ca28143	0.019837027
48	0x3cd9e027	0.026596142
49	0xbc0c05d1	-0.008546309
50	0x3cf74740	0.030185342
51	0xbd45e16e	-0.04831069
52	0x3caab41d	0.020837838
53	0xbb872583	-0.004124345
54	0x3b1504ed	0.0022738532
55	0xbaa45e8f	-0.0012540388
56	0xbb4dab20	-0.0031382516
57	0xbc638f74	-0.013889182
58	0xbd1f8cba	-0.038952567
59	0xbbf4e85e	-0.0074739894
60	0x3cadedd0	0.021231562
61	0x3c602709	0.013681182
62	0xbc40ed07	-0.011775262
63	0xbc904adb	-0.017613819
64	0xbc7da433	-0.015481043
65	0xbca82f20	-0.020530283
66	0xbc3f5d6e	-0.01167999
67	0x3d1fdb3d	0.03902744
68	0x3c912969	0.017719941
69	0x3d01f069	0.031723414
70	0xbd0ab600	-0.033864975
71	0xbc185389	-0.00929726
72	0x398076c6	0.00024502556
73	0x3c49140d	0.012272847
74	0x3b9e4836	0.0048303856
75	0xbc1f7a26	-0.009733712
76	0xbce55860	-0.027996242
77	0x3d03cb36	0.03217622
78	0x3b1bb7b2	0.0023760614
79	0xbceb2fa3	-0.028709238
80	0xbc747df0	-0.014922604
81	0x3c1e4a6e	0.0096613
82	0xbd26fb14	-0.04076679
83	0xbc69a5ce	-0.014260722
84	0xbc39de0d	-0.011344445
85	0xbbce2b2c	-0.0062917676
86	0xbab3ec98	-0.0013727127
87	0x3be95b8f	0.0071215103
88	0x3ad4dd2e	0.0016240233
89	0xbc1857e9	-0.009298303
90	0xba9b6bfc	-0.0011857743
91	0x3ae0f3d7	0.0017162514
92	0xbcce0614	-0.025149383
93	0xb9cd03a7	-0.00039103368
94	0xbc437429	-0.01192955
95	0x3c882d69	0.016623216
96	0xbc9bfb66	-0.019040775
97	0x3d3befd0	0.045883
98	0xbd41cb14	-0.04731281
99	0x3b8cfc96	0.0043025715
100	0xbc85543a	-0.016275514
101	0xbc31eb2d	-0.010859293
102	0xbc262852	-0.010141449
103	0x3c236d72	0.009974824
104	0x3bc08593	0.0058752983
105	0x3d14d560	0.036336303
106	0x3b4c1b34	0.0031144144
107	0xbce660e6	-0.028122377
108	0xbbc9d88a	-0.0061598467
109	0x3d199c6d	0.037502695
110	0xbca72f3d	-0.020408267
111	0x3c6b94e2	0.014378758
112	0x3c3eaafd	0.0116374465
113	0xbd1027fe	-0.03519439
114	0x3d103366	0.035205267
115	0x3a49d0ef	0.0007698675
116	0x3c9e3afa	0.019315232
117	0xbcd88a90	-0.02643326
118	0xbc919399	-0.017770575
119	0x3a307c44	0.0006732384
120	0x3cf3143c	0.029672734
121	0x3cfbbd99	0.030730056
122	0xba0416b8	-0.0005038786
123	0x3c5110de	0.012760369
124	0xbbcfbde1	-0.006339774
125	0x3ccfb8ec	0.025356732
126	0xbcc38001	-0.023864748
127	0x3c1c57dd	0.009542433
128	0xbcac64a2	-0.02104408
129	0xbc2f2887	-0.010690815
130	0x3b0233b4	0.0019867243
131	0x3b9607ac	0.0045785513
132	0xbcd252c2	-0.025674228
133	0xbcae6d14	-0.021292247
134	0xbba7286e	-0.005101255
135	0xbc9f8ddc	-0.019476824
136	0xbc7b1357	-0.015324435
137	0xbcb2504b	-0.021766802
138	0x3c60e9ea	0.013727644
139	0x3bf6eee3	0.0075358017
140	0x3ca2e56e	0.019884791
141	0x3bee6daa	0.0072762566
142	0x3c8640ac	0.01638826
143	0x3c2e3b45	0.010634248
144	0xbb976659	-0.004620355
145	0x3b6a81c0	0.0035782903
146	0xbcbfa7eb	-0.0233955
147	0xbabd7e04	-0.0014457111
148	0x3c5c1867	0.013433552
149	0xbc47969b	-0.012181903
150	0x3b32f8bb	0.00273089
151	0xbcb9b86a	-0.022670943
152	0xbcda3eef	-0.026641337
153	0x3c49c5ce	0.012315227
154	0x3ac5b014	0.0015082383
155	0xbc040257	-0.0080571985
156	0xbbd3b4fe	-0.006460785
157	0xbbaa32b3	-0.005194032
158	0x3cbd9421	0.023141922
159	0x3d468729	0.048468743
160	0x3cba7027	0.022758557
161	0x3c947bf2	0.018125508
162	0xbd377310	-0.044787467
163	0x3b394c39	0.0028274192
164	0xbb0b8335	-0.0021287922
165	0x3b567df0	0.0032728873
166	0xbcb8e629	-0.022570686
167	0x3cfa761c	0.030573897
168	0x3c807472	0.015680525
169	0x3ad3ca07	0.0016158231
170	0x3c400d3b	0.011721904
171	0x3ca895ab	0.02057918
172	0x3cccbcc0	0.024992347
173	0xbcb86e4b	-0.02251353
174	0xbcad2f39	-0.021140682
175	0xbc3c17b8	-0.011480264
176	0x3d05a6b5	0.032629687
177	0x39056669	0.00012722019
178	0xbcc13427	-0.023584438
179	0x3c869c5c	0.01643198
180	0x3bd9021b	0.0066225654
181	0xbc07630d	-0.008263362
182	0xba5435a1	-0.00080951495
183	0xbd03cd22	-0.03217805
184	0xbcaf3349	-0.02138676
185	0xbcdd706b	-0.027031144
186	0xbcd823c6	-0.026384246
187	0x3be65b04	0.007029893
188	0x3bf53adb	0.0074838228
189	0xbb1d17b6	-0.0023970432
190	0x3bf9f8f0	0.0076285526
191	0xbb133e62	-0.0022467603
192	0x3ca661ed	0.020310367
193	0xbb52731b	-0.0032112065
194	0x3bfe2383	0.007755698
195	0x3c3cca47	0.011522836
196	0x3cedf247	0.02904619
197	0xbcc68361	-0.024232568
198	0x3ca6cd59	0.02036159
199	0xbcf703d8	-0.0301532
200	0x3d0e9b24	0.034815922
201	0xbc40740d	-0.011746419
202	0xbbff8de6	-0.007798898
203	0x3c64c44b	0.0139628155
204	0xbbc700c5	-0.00607309
205	0x381e283f	3.7707618e-05
206	0xbb7702b5	-0.0037690823
207	0x3c11dd07	0.008902795
208	0x3ccb8ed5	0.024848381
209	0x3c303379	0.01075446
210	0xbc0e7385	-0.008694534
211	0xbadd0961	-0.0016863757
212	0xbc28d982	-0.010305764
213	0xbcda366b	-0.026637277
214	0xbb6c82e7	-0.0036088766
215	0x3ca30976	0.019901972
216	0xbca44953	-0.020054495
217	0x3ba9bf7d	0.005180298
218	0x3b98a0bb	0.0046578324
219	0xba1e1047	-0.0006029647
220	0xbc14aa16	-0.009073755
221	0x3c2fa914	0.010721464
222	0x3c22d129	0.009937563
223	0xbc069d09	-0.008216151
224	0x3c469c9e	0.012122301
225	0xbcf97c6e	-0.03045484
226	0xbc8e15cd	-0.01734438
227	0x3b85204b	0.0040626875
228	0x39b27f77	0.00034045774
229	0x3ca768c7	0.020435704
230	0xbd51c6b9	-0.051214907
231	0xbbbb6a4b	-0.005719458
232	0xbcb73752	-0.022365246
233	0x3bd12ee1	0.006383762
234	0xbc8bf87b	-0.017086258
235	0xba2ac20a	-0.00065138994
236	0x3c824899	0.015903758
237	0xba5c6c3c	-0.0008408462
238	0x3c72a718	0.014810346
239	0x3d0e99bb	0.034814578
240	0xbc6c1bce	-0.014410926
241	0x3c8692e9	0.016427474
242	0x3d1b2054	0.037872627
243	0x3b049c13	0.002023463
244	0xbc4130c1	-0.011791409
245	0xbc66252a	-0.014046947
246	0xbc671dde	-0.014106242
247	0xbc890eb3	-0.016730642
248	0x3c8f34af	0.017481176
249	0xba9a5e0d	-0.0011777297
250	0x3ce8084b	0.028324267
251	0xbd7573b3	-0.059924792
252	0xbc212f59	-0.009837949
253	0xbbac5445	-0.005259069
254	0x3bdbbd7d	0.0067059384
255	0xbc80218b	-0.015640995

roberta.encoder.layer.0.attention.self.key.bias f4 [32]
0	0x00000000	0.0
1	0x00000000	0.0
2	0x00000000	0.0
3	0x00000000	0.0
4	0x00000000	0.0
5	0x00000000	0.0
6	0x00000000	0.0
7	0x00000000	0.0
8	0x00000000	0.0
9	0x00000000	0.0
10	0x00000000	0.0
11	0x00000000	0.0
12	0x00000000	0.0
13	0x00000000	0.0
14	0x00000000	0.0
15	0x00000000	0.0
16	0x00000000	0.0
17	0x00000000	0.0
18	0x00000000	0.0
19	0x00000000	0.0
20	0x00000000	0.0
21	0x00000000	0.0
22	0x00000000	0.0
23	0x00000000	0.0
24	0x00000000	0.0
25	0x00000000	0.0
26	0x00000000	0.0
27	0x00000000	0.0
28	0x00000000	0.0
29	0x00000000	0.0
30	0x00000000	0.0
31	0x00000000	0.0

roberta.encoder.layer.0.attention.self.value.weight f4 [32, 32]
0	0x3b8ad4de	0.0042368015
1	0xbce60db0	-0.028082699
2	0x3ce0df98	0.027450368
3	0xbc846abf	-0.016164182
4	0x3bc3beea	0.0059736865
5	0xbba7dd85	-0.0051228427
6	0xb9fe15ea	-0.00048462983
7	0xbcc0bd80	-0.02352786
8	0x3c04a9cf	0.008097126
9	0xbc993e59	-0.018706487
10	0x3c36a85d	0.011148539
11	0x3c1adb1d	0.009451655
12	0xbb9be9d6	-0.0047581
13	0xba84cbc8	-0.0010131532
14	0x3b463d14	0.0030248808
15	0xbc1b51ce	-0.009479953
16	0x3caf27e5	0.021381328
17	0xbd088cef	-0.03333753
18	0x3c33266a	0.010934452
19	0xb948b9b7	-0.0001914267
20	0x3b1e6f4d	0.0024175227
21	0xbca25f14	-0.019820727
22	0xbc6d3f54	-0.014480431
23	0xbc99c552	-0.018770847
24	0xbc477821	-0.012174637
25	0x3c30b39c	0.01078501
26	0x3c00de42	0.00786549
27	0xbc9ba494	-0.018999375
28	0x3bc31d22	0.0059544006
29	0x3beb1709	0.007174377
30	0xbc2bd601	-0.010488034
31	0xbc98fc6e	-0.018675055
32	0x3ccbc552	0.024874363
33	0x3d3a34f3	0.045460653
34	0xbc3a3c65	-0.011366938
35	0xbc209324	-0.009800706
36	0x3cd0b3f0	0.025476426
37	0x3bdd8cbd	0.006761162
38	0x3c74ba5d	0.014937011
39	0x3c78ee67	0.015193558
40	0xbb6dc3a0	-0.0036279932
41	0x3c52c7cb	0.012865017
42	0x3cbe2be5	0.02321429
43	0xbafbd500	-0.0019213259
44	0x3cb3a1f2	0.021927807
45	0xbcad98be	-0.021190997
46	0xbbf5aa72	-0.0074971253
47	0x3b7d9bf9	0.0038697703
48	0x3c85a07f	0.016311882
49	0xbae0eb54	-0.0017159977
50	0xbbaf3dfd	-0.0053479658
51	0x3d19cb0a	0.03754715
52	0x3acf83e5	0.0015832154
53	0xbcffb4f5	-0.031214217
54	0xbcdb47f3	-0.026767706
55	0x3a57b30f	0.0008228281
56	0xbb698592	-0.0035632593
57	0xbc7c704c	-0.015407633
58	0xbb2a1184	-0.0025950382
59	0x3c819c61	0.015821638
60	0x3c58ad85	0.013224964
61	0xbb90ce39	-0.004419115
62	0xbae28359	-0.0017281576
63	0x3bce6e29	0.006299753
64	0xbd0ae939	-0.033913825
65	0x3b7a83f7	0.003822563
66	0xbbdc04b0	-0.006714426
67	0x3ad2edc9	0.0016092594
68	0x3c12f4b9	0.008969479
69	0x3c995ad4	0.018720068
70	0xbb76c3cb	-0.0037653323
71	0xbce41f61	-0.027846994
72	0x3c0c0295	0.0085455375
73	0x3ad49e42	0.0016221481
74	0xbce755e1	-0.028239192
75	0x3beff36b	0.007322719
76	0xbc470945	-0.012148206
77	0x3bfc66d8	0.0077026896
78	0x3c889007	0.01667024
79	0xbae8850e	-0.0017739849
80	0x3c63b68a	0.013898501
81	0xbca623e9	-0.020280795
82	0xbb69e5ce	-0.0035689953
83	0x3d002cd9	0.03129277
84	0xbc008315	-0.007843752
85	0x3cc75eeb	0.024337253
86	0xbbbe301d	-0.0058040754
87	0x3c3c35ed	0.011487466
88	0x3a60f43b	0.0008581315
89	0xbce94f25	-0.028480122
90	0x3b50b8e9	0.0031848496
91	0x3c10b4a1	0.008832128
92	0x3cd4a05c	0.025955372
93	0xbc80a86b	-0.015705308
94	0xbc0c720b	-0.008572112
95	0x3d038e9f	0.032118436
96	0x3cbc0254	0.022950329
97	0xbceb380f	-0.028713254
98	0x3cc77857	0.024349375
99	0xbaebf47e	-0.0018001941
100	0x3c2a2a5e	0.010386078
101	0xbb8f7de5	-0.0043790215
102	0x3b1686e7	0.0022968592
103	0x3c3d9a41	0.0115724215
104	0xbcf4b690	-0.029872209
105	0xbbfd49c1	-0.0077297394
106	0x3b29c61c	0.0025905436
107	0x3c9c9687	0.019114746
108	0xb974547d	-0.00023301128
109	0x3c8157cd	0.015788937
110	0xbcbaaa66	-0.02278633
111	0xbd10677e	-0.035254948
112	0x3c1da39b	0.009621526
113	0xbc9aa5ca	-0.018877883
114	0x3d3e9172	0.046525426
115	0xbabefc19	-0.001457098
116	0x3c87a74b	0.016559264
117	0x3bbd2f75	0.0057734796
118	0x3c41b65e	0.011823265
119	0x3b103637	0.002200497
120	0xbcea76bc	-0.02862107
121	0x3cab8d45	0.020941386
122	0xbb97ab4e	-0.0046285754
123	0xbc284577	-0.010270468
124	0xbc67d346	-0.014149493
125	0x3c24e58a	0.010064492
126	0x3c8f8294	0.01751832
127	0xbc908fba	-0.01764666
128	0x3b8e00e6	0.004333603
129	0x3d2f644d	0.042820264
130	0xbb0d3ead	-0.002155225
131	0x3d05cc07	0.03266528
132	0xbc8ee8e4	-0.017445035
133	0x3c9ad904	0.01890231
134	0xbbeddc55	-0.0072589316
135	0x3c849e1d	0.016188676
136	0xbc1ebacd	-0.009688091
137	0xbcf4a326	-0.029862951
138	0x3a62c58e	0.0008650654
139	0xbcf86aeb	-0.03032442
140	0x3cb1d82d	0.021709526
141	0x3d041d9d	0.032254804
142	0x3ab9a59b	0.0014163734
143	0xbc052724	-0.008127008
144	0xbc888cf6	-0.016668778
145	0xbb88d109	-0.0041753096
146	0xbc41279d	-0.01178923
147	0x397dede3	0.0002421658
148	0xbb258e4f	-0.0025261824
149	0xbb8de72a	-0.0043305354
150	0xbb38ae29	-0.002817998
151	0x3c806639	0.015673744
152	0x3c4064d4	0.011742789
153	0xbc2da957	-0.010599456
154	0x3c6f5f83	0.014610174
155	0xbb7cf3c3	-0.0038597442
156	0x3ce4db97	0.02793674
157	0xbca93ea6	-0.020659756
158	0x3cadb516	0.021204513
159	0x3c1478a6	0.009061968
160	0x3c661dc7	0.014045185
161	0xbccd9819	-0.02509694
162	0xbd466126	-0.04843249
163	0x3a47666d	0.000760651
164	0x3c3df397	0.011593721
165	0xbc184be0	-0.009295434
166	0xbc18633c	-0.009301003
167	0xbbcfd19e	-0.006342127
168	0x3bf63b2a	0.007514377
169	0xbb13c1d2	-0.0022545946
170	0x3c035970	0.008016929
171	0x3c937f42	0.018005017
172	0x3cfc34d8	0.030786917
173	0xbc4dd97b	-0.012564058
174	0xbb84266f	-0.004032902
175	0xbc14bab2	-0.009077715
176	0xbb47d095	-0.0030489315
177	0x3d233b9a	0.039851762
178	0xbca5afc5	-0.020225415
179	0x3bf4703d	0.007459669
180	0x3caf426f	0.021393983
181	0xbb89d0e2	-0.004205809
182	0xbc36a8cb	-0.011148642
183	0x3b8fc8a2	0.004387931
184	0x3c88ce05	0.0166998
185	0x3cc7d6b8	0.024394378
186	0xbc535b35	-0.012900163
187	0xbcc9f2a1	-0.024651827
188	0xba8c97bb	-0.0010726372
189	0xbc706b26	-0.014673984
190	0xbd11de5f	-0.03561246
191	0x3cf2dd43	0.029646521
192	0x3c400fa4	0.011722479
193	0x3ce2a710	0.027667552
194	0x3c76bde1	0.015059919
195	0x3c96810e	0.018372085
196	0x3cc45ece	0.023970988
197	0xbb129659	-0.0022367446
198	0x3bcac47e	0.0061879745
199	0xb9397f34	-0.00017690362
200	0xbc3c665b	-0.011499013
201	0x3c29cbee	0.010363562
202	0x3c3c1372	0.0114792455
203	0x3c16afb4	0.009197164
204	0xbc656dd2	-0.014003234
205	0x3cb863e7	0.022508575
206	0x3d167b00	0.036738396
207	0x3be00b41	0.006837279
208	0xbc723c17	-0.014784834
209	0xbc8b7389	-0.017022865
210	0x3ce8b83b	0.02840816
211	0x3a06cb51	0.0005141991
212	0xbcb29e5e	-0.021804031
213	0x3b8eab7d	0.004353939
214	0xbbd1bb9d	-0.006400539
215	0xbcc643ce	-0.024202254
216	0x3cd08cdb	0.02545779
217	0x3bdaea79	0.0066807834
218	0xbc6c770c	-0.01443268
219	0x3cd1e2f2	0.025620911
220	0xbba132cb	-0.004919385
221	0x3ccc646a	0.024950225
222	0xbbe55397	-0.00699849
223	0xbc1b7bda	-0.009489978
224	0xb9b0b78f	-0.00033706098
225	0xbb3701c0	-0.0027924627
226	0x3ca7e950	0.020496994
227	0xbc4adc7d	-0.01238167
228	0xb700cab9	-7.676595e-06
229	0x3c9b14e8	0.018930867
230	0x3bdbfedb	0.0067137307
231	0x3b4aaddd	0.0030926384
232	0x3cde1018	0.027107283
233	0xbc5ae753	-0.013360816
234	0x3c35b53c	0.011090573
235	0x3d2c70fd	0.04209994
236	0x3c3ca949	0.01151497
237	0x3c0ee19b	0.008720781
238	0xbc812849	-0.01576628
239	0x3aefc3cc	0.0018292605
240	0xbc10f18e	-0.008846654
241	0x3c49096a	0.012270311
242	0xbba30be9	-0.004975785
243	0x3c825524	0.015909739
244	0xbc41b9b0	-0.0118240565
245	0x3cf759ef	0.03019425
246	0xbc019a89	-0.007910379
247	0x3c778c82	0.015109183
248	0x3cfe371e	0.031032141
249	0xbcdb9118	-0.026802585
250	0xbbb02ab3	-0.005376184
251	0x3c489c53	0.012244302
252	0x3c874ee0	0.016517103
253	0x3cd28fe5	0.02570338
254	0x3b9e5202	0.0048315534
255	0xbcb3996e	-0.021923747

roberta.encoder.layer.0.attention.self.value.bias f4 [32]
0	0x00000000	0.0
1	0x00000000	0.0
2	0x00000000	0.0
3	0x00000000	0.0
4	0x00000000	0.0
5	0x00000000	0.0
6	0x00000000	0.0
7	0x00000000	0.0
8	0x00000000	0.0
9	0x00000000	0.0
10	0x00000000	0.0
11	0x00000000	0.0
12	0x00000000	0.0
13	0x00000000	0.0
14	0x00000000	0.0
15	0x00000000	0.0
16	0x00000000	0.0
17	0x00000000	0.0
18	0x00000000	0.0
19	0x00000000	0.0
20	0x00000000	0.0
21	0x00000000	0.0
22	0x00000000	0.0
23	0x00000000	0.0
24	0x00000000	0.0
25	0x00000000	0.0
26	0x00000000	0.0
27	0x00000000	0.0
28	0x00000000	0.0
29	0x00000000	0.0
30	0x00000000	0.0
31	0x00000000	0.0
